…
    "        \n",
    "        # save image\n",
    "        fig.savefig(\"images\\\\%d.png\" % epoch)\n",
    "        plt.close()"
   ]
  },
  {
   "cell_type": "code",
   "execution_count": 12,
   "metadata": {},
   "outputs": [
    {
     "name": "stdout",
     "output_type": "stream",
     "text": [
      "Model: \"sequential_5\"\n",
      "_________________________________________________________________\n",
      "Layer (type)                 Output Shape              Param #   \n",
      "=================================================================\n",
      "flatten_3 (Flatten)          (None, 784)               0         \n",
      "_________________________________________________________________\n",
      "dense_15 (Dense)             (None, 512)               401920    \n",
      "_________________________________________________________________\n",
      "leaky_re_lu_11 (LeakyReLU)   (None, 512)               0         \n",
      "_________________________________________________________________\n",
      "dense_16 (Dense)             (None, 256)               131328    \n",
      "_________________________________________________________________\n",
      "leaky_re_lu_12 (LeakyReLU)   (None, 256)               0         \n",
      "_________________________________________________________________\n",
      "dense_17 (Dense)             (None, 1)                 257       \n",
      "=================================================================\n",
      "Total params: 533,505\n",
      "Trainable params: 533,505\n",
      "Non-trainable params: 0\n",
      "_________________________________________________________________\n",
      "Model: \"sequential_6\"\n",
      "_________________________________________________________________\n",
      "Layer (type)                 Output Shape              Param #   \n",
      "=================================================================\n",
      "dense_18 (Dense)             (None, 256)               25856     \n",
      "_________________________________________________________________\n",
      "leaky_re_lu_13 (LeakyReLU)   (None, 256)               0         \n",
      "_________________________________________________________________\n",
      "batch_normalization_7 (Batch (None, 256)               1024      \n",
      "_________________________________________________________________\n",
      "dense_19 (Dense)             (None, 512)               131584    \n",
      "_________________________________________________________________\n",
      "leaky_re_lu_14 (LeakyReLU)   (None, 512)               0         \n",
      "_________________________________________________________________\n",
      "batch_normalization_8 (Batch (None, 512)               2048      \n",
      "_________________________________________________________________\n",
      "dense_20 (Dense)             (None, 1024)              525312    \n",
      "_________________________________________________________________\n",
      "leaky_re_lu_15 (LeakyReLU)   (None, 1024)              0         \n",
      "_________________________________________________________________\n",
      "batch_normalization_9 (Batch (None, 1024)              4096      \n",
      "_________________________________________________________________\n",
      "dense_21 (Dense)             (None, 784)               803600    \n",
      "_________________________________________________________________\n",
      "reshape_3 (Reshape)          (None, 28, 28, 1)         0         \n",
      "=================================================================\n",
      "Total params: 1,493,520\n",
      "Trainable params: 1,489,936\n",
      "Non-trainable params: 3,584\n",
      "_________________________________________________________________\n",
      "0 [D loss: 0.546983, acc.: 54.69%] [G loss: 0.441329]\n"
     ]
    },
    {
     "name": "stderr",
     "output_type": "stream",
…
